…
img_neck.fpn_convs.2.conv.bias - torch.Size([512]): 
The value is the same before and after calling `init_weights` of SurroundOcc  
2025-02-23 22:54:03,700 - mmdet - INFO - Model:
SurroundOcc(
  (pts_bbox_head): OccHead(
    (transformer): ModuleList(
      (0): PerceptionTransformer(
        (encoder): OccEncoder(
          (layers): ModuleList(
            (0): OccLayer(
              (attentions): ModuleList(
                (0): SpatialCrossAttention(
                  (dropout): Dropout(p=0.1, inplace=False)
                  (deformable_attention): MSDeformableAttention3D(
                    (sampling_offsets): Linear(in_features=128, out_features=32, bias=True)
                    (attention_weights): Linear(in_features=128, out_features=16, bias=True)
                    (value_proj): Linear(in_features=128, out_features=128, bias=True)
                  )
                  (output_proj): Linear(in_features=128, out_features=128, bias=True)
                )
              )
              (ffns): ModuleList(
                (0): FFN(
                  (activate): ReLU(inplace=True)
                  (layers): Sequential(
                    (0): Sequential(
                      (0): Linear(in_features=128, out_features=256, bias=True)
                      (1): ReLU(inplace=True)
                      (2): Dropout(p=0.1, inplace=False)
                    )
                    (1): Linear(in_features=256, out_features=128, bias=True)
                    (2): Dropout(p=0.1, inplace=False)
                  )
                  (dropout_layer): Identity()
                )
              )
              (norms): ModuleList(
                (0): LayerNorm((128,), eps=1e-05, elementwise_affine=True)
                (1): LayerNorm((128,), eps=1e-05, elementwise_affine=True)
              )
              (deblock): ModuleList(
                (0): Sequential(
                  (0): DepthwiseSeparableConv3d(
                    (depthwise): Conv3d(128, 128, kernel_size=(3, 3, 3), stride=(1, 1, 1), padding=(1, 1, 1), groups=128)
                    (pointwise): Conv3d(128, 128, kernel_size=(1, 1, 1), stride=(1, 1, 1))
                  )
                  (1): GroupNorm(16, 128, eps=1e-05, affine=True)
                  (2): ReLU(inplace=True)
                )
                (1): Sequential(
                  (0): DepthwiseSeparableConv3d(
                    (depthwise): Conv3d(128, 128, kernel_size=(3, 3, 3), stride=(1, 1, 1), padding=(1, 1, 1), groups=128)
                    (pointwise): Conv3d(128, 128, kernel_size=(1, 1, 1), stride=(1, 1, 1))
                  )
                  (1): GroupNorm(16, 128, eps=1e-05, affine=True)
                  (2): ReLU(inplace=True)
                )
              )
            )
          )
        )
        (reference_points): Linear(in_features=128, out_features=3, bias=True)
      )
      (1): PerceptionTransformer(
        (encoder): OccEncoder(
          (layers): ModuleList(
            (0): OccLayer(
              (attentions): ModuleList(
                (0): SpatialCrossAttention(
                  (dropout): Dropout(p=0.1, inplace=False)
                  (deformable_attention): MSDeformableAttention3D(
                    (sampling_offsets): Linear(in_features=256, out_features=64, bias=True)
                    (attention_weights): Linear(in_features=256, out_features=32, bias=True)
                    (value_proj): Linear(in_features=256, out_features=256, bias=True)
                  )
                  (output_proj): Linear(in_features=256, out_features=256, bias=True)
                )
              )
              (ffns): ModuleList(
                (0): FFN(
                  (activate): ReLU(inplace=True)
                  (layers): Sequential(
                    (0): Sequential(
                      (0): Linear(in_features=256, out_features=512, bias=True)
                      (1): ReLU(inplace=True)
                      (2): Dropout(p=0.1, inplace=False)
                    )
                    (1): Linear(in_features=512, out_features=256, bias=True)
                    (2): Dropout(p=0.1, inplace=False)
                  )
                  (dropout_layer): Identity()
                )
              )
              (norms): ModuleList(
                (0): LayerNorm((256,), eps=1e-05, elementwise_affine=True)
                (1): LayerNorm((256,), eps=1e-05, elementwise_affine=True)
              )
              (deblock): ModuleList(
                (0): Sequential(
                  (0): DepthwiseSeparableConv3d(
                    (depthwise): Conv3d(256, 256, kernel_size=(3, 3, 3), stride=(1, 1, 1), padding=(1, 1, 1), groups=256)
                    (pointwise): Conv3d(256, 256, kernel_size=(1, 1, 1), stride=(1, 1, 1))
                  )
                  (1): GroupNorm(16, 256, eps=1e-05, affine=True)
                  (2): ReLU(inplace=True)
                )
                (1): Sequential(
                  (0): DepthwiseSeparableConv3d(
                    (depthwise): Conv3d(256, 256, kernel_size=(3, 3, 3), stride=(1, 1, 1), padding=(1, 1, 1), groups=256)
                    (pointwise): Conv3d(256, 256, kernel_size=(1, 1, 1), stride=(1, 1, 1))
                  )
                  (1): GroupNorm(16, 256, eps=1e-05, affine=True)
                  (2): ReLU(inplace=True)
                )
              )
            )
            (1): OccLayer(
              (attentions): ModuleList(
                (0): SpatialCrossAttention(
                  (dropout): Dropout(p=0.1, inplace=False)
                  (deformable_attention): MSDeformableAttention3D(
                    (sampling_offsets): Linear(in_features=256, out_features=64, bias=True)
                    (attention_weights): Linear(in_features=256, out_features=32, bias=True)
                    (value_proj): Linear(in_features=256, out_features=256, bias=True)
                  )
                  (output_proj): Linear(in_features=256, out_features=256, bias=True)
                )
              )
              (ffns): ModuleList(
                (0): FFN(
                  (activate): ReLU(inplace=True)
                  (layers): Sequential(
                    (0): Sequential(
                      (0): Linear(in_features=256, out_features=512, bias=True)
                      (1): ReLU(inplace=True)
                      (2): Dropout(p=0.1, inplace=False)
                    )
                    (1): Linear(in_features=512, out_features=256, bias=True)
                    (2): Dropout(p=0.1, inplace=False)
                  )
                  (dropout_layer): Identity()
                )
              )
              (norms): ModuleList(
                (0): LayerNorm((256,), eps=1e-05, elementwise_affine=True)
                (1): LayerNorm((256,), eps=1e-05, elementwise_affine=True)
              )
              (deblock): ModuleList(
                (0): Sequential(
                  (0): DepthwiseSeparableConv3d(
                    (depthwise): Conv3d(256, 256, kernel_size=(3, 3, 3), stride=(1, 1, 1), padding=(1, 1, 1), groups=256)
                    (pointwise): Conv3d(256, 256, kernel_size=(1, 1, 1), stride=(1, 1, 1))
                  )
                  (1): GroupNorm(16, 256, eps=1e-05, affine=True)
                  (2): ReLU(inplace=True)
                )
                (1): Sequential(
                  (0): DepthwiseSeparableConv3d(
                    (depthwise): Conv3d(256, 256, kernel_size=(3, 3, 3), stride=(1, 1, 1), padding=(1, 1, 1), groups=256)
                    (pointwise): Conv3d(256, 256, kernel_size=(1, 1, 1), stride=(1, 1, 1))
                  )
                  (1): GroupNorm(16, 256, eps=1e-05, affine=True)
                  (2): ReLU(inplace=True)
                )
              )
            )
            (2): OccLayer(
              (attentions): ModuleList(
                (0): SpatialCrossAttention(
                  (dropout): Dropout(p=0.1, inplace=False)
                  (deformable_attention): MSDeformableAttention3D(
                    (sampling_offsets): Linear(in_features=256, out_features=64, bias=True)
                    (attention_weights): Linear(in_features=256, out_features=32, bias=True)
                    (value_proj): Linear(in_features=256, out_features=256, bias=True)
                  )
                  (output_proj): Linear(in_features=256, out_features=256, bias=True)
                )
              )
              (ffns): ModuleList(
                (0): FFN(
                  (activate): ReLU(inplace=True)
                  (layers): Sequential(
                    (0): Sequential(
                      (0): Linear(in_features=256, out_features=512, bias=True)
                      (1): ReLU(inplace=True)
                      (2): Dropout(p=0.1, inplace=False)
                    )
                    (1): Linear(in_features=512, out_features=256, bias=True)
                    (2): Dropout(p=0.1, inplace=False)
                  )
                  (dropout_layer): Identity()
                )
              )
              (norms): ModuleList(
                (0): LayerNorm((256,), eps=1e-05, elementwise_affine=True)
                (1): LayerNorm((256,), eps=1e-05, elementwise_affine=True)
              )
              (deblock): ModuleList(
                (0): Sequential(
                  (0): DepthwiseSeparableConv3d(
                    (depthwise): Conv3d(256, 256, kernel_size=(3, 3, 3), stride=(1, 1, 1), padding=(1, 1, 1), groups=256)
                    (pointwise): Conv3d(256, 256, kernel_size=(1, 1, 1), stride=(1, 1, 1))
                  )
                  (1): GroupNorm(16, 256, eps=1e-05, affine=True)
                  (2): ReLU(inplace=True)
                )
                (1): Sequential(
                  (0): DepthwiseSeparableConv3d(
                    (depthwise): Conv3d(256, 256, kernel_size=(3, 3, 3), stride=(1, 1, 1), padding=(1, 1, 1), groups=256)
                    (pointwise): Conv3d(256, 256, kernel_size=(1, 1, 1), stride=(1, 1, 1))
                  )
                  (1): GroupNorm(16, 256, eps=1e-05, affine=True)
                  (2): ReLU(inplace=True)
                )
              )
            )
          )
        )
        (reference_points): Linear(in_features=256, out_features=3, bias=True)
      )
      (2): PerceptionTransformer(
        (encoder): OccEncoder(
          (layers): ModuleList(
            (0): OccLayer(
              (attentions): ModuleList(
                (0): SpatialCrossAttention(
                  (dropout): Dropout(p=0.1, inplace=False)
                  (deformable_attention): MSDeformableAttention3D(
                    (sampling_offsets): Linear(in_features=512, out_features=128, bias=True)
                    (attention_weights): Linear(in_features=512, out_features=64, bias=True)
                    (value_proj): Linear(in_features=512, out_features=512, bias=True)
                  )
                  (output_proj): Linear(in_features=512, out_features=512, bias=True)
                )
              )
              (ffns): ModuleList(
                (0): FFN(
                  (activate): ReLU(inplace=True)
                  (layers): Sequential(
                    (0): Sequential(
                      (0): Linear(in_features=512, out_features=1024, bias=True)
                      (1): ReLU(inplace=True)
                      (2): Dropout(p=0.1, inplace=False)
                    )
                    (1): Linear(in_features=1024, out_features=512, bias=True)
                    (2): Dropout(p=0.1, inplace=False)
                  )
                  (dropout_layer): Identity()
                )
              )
              (norms): ModuleList(
                (0): LayerNorm((512,), eps=1e-05, elementwise_affine=True)
                (1): LayerNorm((512,), eps=1e-05, elementwise_affine=True)
              )
              (deblock): ModuleList(
                (0): Sequential(
                  (0): DepthwiseSeparableConv3d(
                    (depthwise): Conv3d(512, 512, kernel_size=(3, 3, 3), stride=(1, 1, 1), padding=(1, 1, 1), groups=512)
                    (pointwise): Conv3d(512, 512, kernel_size=(1, 1, 1), stride=(1, 1, 1))
                  )
                  (1): GroupNorm(16, 512, eps=1e-05, affine=True)
                  (2): ReLU(inplace=True)
                )
                (1): Sequential(
                  (0): DepthwiseSeparableConv3d(
                    (depthwise): Conv3d(512, 512, kernel_size=(3, 3, 3), stride=(1, 1, 1), padding=(1, 1, 1), groups=512)
                    (pointwise): Conv3d(512, 512, kernel_size=(1, 1, 1), stride=(1, 1, 1))
                  )
                  (1): GroupNorm(16, 512, eps=1e-05, affine=True)
                  (2): ReLU(inplace=True)
                )
              )
            )
            (1): OccLayer(
              (attentions): ModuleList(
                (0): SpatialCrossAttention(
                  (dropout): Dropout(p=0.1, inplace=False)
                  (deformable_attention): MSDeformableAttention3D(
                    (sampling_offsets): Linear(in_features=512, out_features=128, bias=True)
                    (attention_weights): Linear(in_features=512, out_features=64, bias=True)
                    (value_proj): Linear(in_features=512, out_features=512, bias=True)
                  )
                  (output_proj): Linear(in_features=512, out_features=512, bias=True)
                )
              )
              (ffns): ModuleList(
                (0): FFN(
                  (activate): ReLU(inplace=True)
                  (layers): Sequential(
                    (0): Sequential(
                      (0): Linear(in_features=512, out_features=1024, bias=True)
                      (1): ReLU(inplace=True)
                      (2): Dropout(p=0.1, inplace=False)
                    )
                    (1): Linear(in_features=1024, out_features=512, bias=True)
                    (2): Dropout(p=0.1, inplace=False)
                  )
                  (dropout_layer): Identity()
                )
              )
              (norms): ModuleList(
                (0): LayerNorm((512,), eps=1e-05, elementwise_affine=True)
                (1): LayerNorm((512,), eps=1e-05, elementwise_affine=True)
              )
              (deblock): ModuleList(
                (0): Sequential(
                  (0): DepthwiseSeparableConv3d(
                    (depthwise): Conv3d(512, 512, kernel_size=(3, 3, 3), stride=(1, 1, 1), padding=(1, 1, 1), groups=512)
                    (pointwise): Conv3d(512, 512, kernel_size=(1, 1, 1), stride=(1, 1, 1))
                  )
                  (1): GroupNorm(16, 512, eps=1e-05, affine=True)
                  (2): ReLU(inplace=True)
                )
                (1): Sequential(
                  (0): DepthwiseSeparableConv3d(
                    (depthwise): Conv3d(512, 512, kernel_size=(3, 3, 3), stride=(1, 1, 1), padding=(1, 1, 1), groups=512)
                    (pointwise): Conv3d(512, 512, kernel_size=(1, 1, 1), stride=(1, 1, 1))
                  )
                  (1): GroupNorm(16, 512, eps=1e-05, affine=True)
                  (2): ReLU(inplace=True)
                )
              )
            )
            (2): OccLayer(
              (attentions): ModuleList(
                (0): SpatialCrossAttention(
                  (dropout): Dropout(p=0.1, inplace=False)
                  (deformable_attention): MSDeformableAttention3D(
                    (sampling_offsets): Linear(in_features=512, out_features=128, bias=True)
                    (attention_weights): Linear(in_features=512, out_features=64, bias=True)
                    (value_proj): Linear(in_features=512, out_features=512, bias=True)
                  )
                  (output_proj): Linear(in_features=512, out_features=512, bias=True)
                )
              )
              (ffns): ModuleList(
                (0): FFN(
                  (activate): ReLU(inplace=True)
                  (layers): Sequential(
                    (0): Sequential(
                      (0): Linear(in_features=512, out_features=1024, bias=True)
                      (1): ReLU(inplace=True)
                      (2): Dropout(p=0.1, inplace=False)
                    )
                    (1): Linear(in_features=1024, out_features=512, bias=True)
                    (2): Dropout(p=0.1, inplace=False)
                  )
                  (dropout_layer): Identity()
                )
              )
              (norms): ModuleList(
                (0): LayerNorm((512,), eps=1e-05, elementwise_affine=True)
                (1): LayerNorm((512,), eps=1e-05, elementwise_affine=True)
              )
              (deblock): ModuleList(
                (0): Sequential(
                  (0): DepthwiseSeparableConv3d(
                    (depthwise): Conv3d(512, 512, kernel_size=(3, 3, 3), stride=(1, 1, 1), padding=(1, 1, 1), groups=512)
                    (pointwise): Conv3d(512, 512, kernel_size=(1, 1, 1), stride=(1, 1, 1))
                  )
                  (1): GroupNorm(16, 512, eps=1e-05, affine=True)
                  (2): ReLU(inplace=True)
                )
                (1): Sequential(
                  (0): DepthwiseSeparableConv3d(
                    (depthwise): Conv3d(512, 512, kernel_size=(3, 3, 3), stride=(1, 1, 1), padding=(1, 1, 1), groups=512)
                    (pointwise): Conv3d(512, 512, kernel_size=(1, 1, 1), stride=(1, 1, 1))
                  )
                  (1): GroupNorm(16, 512, eps=1e-05, affine=True)
                  (2): ReLU(inplace=True)
                )
              )
            )
            (3): OccLayer(
              (attentions): ModuleList(
                (0): SpatialCrossAttention(
                  (dropout): Dropout(p=0.1, inplace=False)
                  (deformable_attention): MSDeformableAttention3D(
                    (sampling_offsets): Linear(in_features=512, out_features=128, bias=True)
                    (attention_weights): Linear(in_features=512, out_features=64, bias=True)
                    (value_proj): Linear(in_features=512, out_features=512, bias=True)
                  )
                  (output_proj): Linear(in_features=512, out_features=512, bias=True)
                )
              )
              (ffns): ModuleList(
                (0): FFN(
                  (activate): ReLU(inplace=True)
                  (layers): Sequential(
                    (0): Sequential(
                      (0): Linear(in_features=512, out_features=1024, bias=True)
                      (1): ReLU(inplace=True)
                      (2): Dropout(p=0.1, inplace=False)
                    )
                    (1): Linear(in_features=1024, out_features=512, bias=True)
                    (2): Dropout(p=0.1, inplace=False)
                  )
                  (dropout_layer): Identity()
                )
              )
              (norms): ModuleList(
                (0): LayerNorm((512,), eps=1e-05, elementwise_affine=True)
                (1): LayerNorm((512,), eps=1e-05, elementwise_affine=True)
              )
              (deblock): ModuleList(
                (0): Sequential(
                  (0): DepthwiseSeparableConv3d(
                    (depthwise): Conv3d(512, 512, kernel_size=(3, 3, 3), stride=(1, 1, 1), padding=(1, 1, 1), groups=512)
                    (pointwise): Conv3d(512, 512, kernel_size=(1, 1, 1), stride=(1, 1, 1))
                  )
                  (1): GroupNorm(16, 512, eps=1e-05, affine=True)
                  (2): ReLU(inplace=True)
                )
                (1): Sequential(
                  (0): DepthwiseSeparableConv3d(
                    (depthwise): Conv3d(512, 512, kernel_size=(3, 3, 3), stride=(1, 1, 1), padding=(1, 1, 1), groups=512)
                    (pointwise): Conv3d(512, 512, kernel_size=(1, 1, 1), stride=(1, 1, 1))
                  )
                  (1): GroupNorm(16, 512, eps=1e-05, affine=True)
                  (2): ReLU(inplace=True)
                )
              )
            )
            (4): OccLayer(
              (attentions): ModuleList(
                (0): SpatialCrossAttention(
                  (dropout): Dropout(p=0.1, inplace=False)
                  (deformable_attention): MSDeformableAttention3D(
                    (sampling_offsets): Linear(in_features=512, out_features=128, bias=True)
                    (attention_weights): Linear(in_features=512, out_features=64, bias=True)
                    (value_proj): Linear(in_features=512, out_features=512, bias=True)
                  )
                  (output_proj): Linear(in_features=512, out_features=512, bias=True)
                )
              )
              (ffns): ModuleList(
                (0): FFN(
                  (activate): ReLU(inplace=True)
                  (layers): Sequential(
                    (0): Sequential(
                      (0): Linear(in_features=512, out_features=1024, bias=True)
                      (1): ReLU(inplace=True)
                      (2): Dropout(p=0.1, inplace=False)
                    )
                    (1): Linear(in_features=1024, out_features=512, bias=True)
                    (2): Dropout(p=0.1, inplace=False)
                  )
                  (dropout_layer): Identity()
                )
              )
              (norms): ModuleList(
                (0): LayerNorm((512,), eps=1e-05, elementwise_affine=True)
                (1): LayerNorm((512,), eps=1e-05, elementwise_affine=True)
              )
              (deblock): ModuleList(
                (0): Sequential(
                  (0): DepthwiseSeparableConv3d(
                    (depthwise): Conv3d(512, 512, kernel_size=(3, 3, 3), stride=(1, 1, 1), padding=(1, 1, 1), groups=512)
                    (pointwise): Conv3d(512, 512, kernel_size=(1, 1, 1), stride=(1, 1, 1))
                  )
                  (1): GroupNorm(16, 512, eps=1e-05, affine=True)
                  (2): ReLU(inplace=True)
                )
                (1): Sequential(
                  (0): DepthwiseSeparableConv3d(
                    (depthwise): Conv3d(512, 512, kernel_size=(3, 3, 3), stride=(1, 1, 1), padding=(1, 1, 1), groups=512)
                    (pointwise): Conv3d(512, 512, kernel_size=(1, 1, 1), stride=(1, 1, 1))
                  )
                  (1): GroupNorm(16, 512, eps=1e-05, affine=True)
                  (2): ReLU(inplace=True)
                )
              )
            )
            (5): OccLayer(
              (attentions): ModuleList(
                (0): SpatialCrossAttention(
                  (dropout): Dropout(p=0.1, inplace=False)
                  (deformable_attention): MSDeformableAttention3D(
                    (sampling_offsets): Linear(in_features=512, out_features=128, bias=True)
                    (attention_weights): Linear(in_features=512, out_features=64, bias=True)
                    (value_proj): Linear(in_features=512, out_features=512, bias=True)
                  )
                  (output_proj): Linear(in_features=512, out_features=512, bias=True)
                )
              )
              (ffns): ModuleList(
                (0): FFN(
                  (activate): ReLU(inplace=True)
                  (layers): Sequential(
                    (0): Sequential(
                      (0): Linear(in_features=512, out_features=1024, bias=True)
                      (1): ReLU(inplace=True)
                      (2): Dropout(p=0.1, inplace=False)
                    )
                    (1): Linear(in_features=1024, out_features=512, bias=True)
                    (2): Dropout(p=0.1, inplace=False)
                  )
                  (dropout_layer): Identity()
                )
              )
              (norms): ModuleList(
                (0): LayerNorm((512,), eps=1e-05, elementwise_affine=True)
                (1): LayerNorm((512,), eps=1e-05, elementwise_affine=True)
              )
              (deblock): ModuleList(
                (0): Sequential(
                  (0): DepthwiseSeparableConv3d(
                    (depthwise): Conv3d(512, 512, kernel_size=(3, 3, 3), stride=(1, 1, 1), padding=(1, 1, 1), groups=512)
                    (pointwise): Conv3d(512, 512, kernel_size=(1, 1, 1), stride=(1, 1, 1))
                  )
                  (1): GroupNorm(16, 512, eps=1e-05, affine=True)
                  (2): ReLU(inplace=True)
                )
                (1): Sequential(
                  (0): DepthwiseSeparableConv3d(
                    (depthwise): Conv3d(512, 512, kernel_size=(3, 3, 3), stride=(1, 1, 1), padding=(1, 1, 1), groups=512)
                    (pointwise): Conv3d(512, 512, kernel_size=(1, 1, 1), stride=(1, 1, 1))
                  )
                  (1): GroupNorm(16, 512, eps=1e-05, affine=True)
                  (2): ReLU(inplace=True)
                )
              )
            )
          )
        )
        (reference_points): Linear(in_features=512, out_features=3, bias=True)
      )
    )
    (deblocks): ModuleList(
      (0): Sequential(
        (0): DepthwiseSeparableConv3d(
          (depthwise): Conv3d(512, 512, kernel_size=(3, 3, 3), stride=(1, 1, 1), padding=(1, 1, 1), groups=512, bias=False)
          (pointwise): Conv3d(512, 256, kernel_size=(1, 1, 1), stride=(1, 1, 1), bias=False)
        )
        (1): GroupNorm(16, 256, eps=1e-05, affine=True)
        (2): ReLU(inplace=True)
      )
      (1): Sequential(
        (0): DepthwiseSeparableDeconv3D(
          (depthwise): ConvTranspose3d(256, 256, kernel_size=(2, 2, 2), stride=(2, 2, 2), groups=256)
          (pointwise): Conv3d(256, 256, kernel_size=(1, 1, 1), stride=(1, 1, 1))
        )
        (1): GroupNorm(16, 256, eps=1e-05, affine=True)
        (2): ReLU(inplace=True)
      )
      (2): Sequential(
        (0): DepthwiseSeparableConv3d(
          (depthwise): Conv3d(256, 256, kernel_size=(3, 3, 3), stride=(1, 1, 1), padding=(1, 1, 1), groups=256, bias=False)
          (pointwise): Conv3d(256, 128, kernel_size=(1, 1, 1), stride=(1, 1, 1), bias=False)
        )
        (1): GroupNorm(16, 128, eps=1e-05, affine=True)
        (2): ReLU(inplace=True)
      )
      (3): Sequential(
        (0): DepthwiseSeparableDeconv3D(
          (depthwise): ConvTranspose3d(128, 128, kernel_size=(2, 2, 2), stride=(2, 2, 2), groups=128)
          (pointwise): Conv3d(128, 128, kernel_size=(1, 1, 1), stride=(1, 1, 1))
        )
        (1): GroupNorm(16, 128, eps=1e-05, affine=True)
        (2): ReLU(inplace=True)
      )
      (4): Sequential(
        (0): DepthwiseSeparableConv3d(
          (depthwise): Conv3d(128, 128, kernel_size=(3, 3, 3), stride=(1, 1, 1), padding=(1, 1, 1), groups=128, bias=False)
          (pointwise): Conv3d(128, 64, kernel_size=(1, 1, 1), stride=(1, 1, 1), bias=False)
        )
        (1): GroupNorm(16, 64, eps=1e-05, affine=True)
        (2): ReLU(inplace=True)
      )
      (5): Sequential(
        (0): DepthwiseSeparableDeconv3D(
          (depthwise): ConvTranspose3d(64, 64, kernel_size=(2, 2, 2), stride=(2, 2, 2), groups=64)
          (pointwise): Conv3d(64, 64, kernel_size=(1, 1, 1), stride=(1, 1, 1))
        )
        (1): GroupNorm(16, 64, eps=1e-05, affine=True)
        (2): ReLU(inplace=True)
      )
      (6): Sequential(
        (0): DepthwiseSeparableConv3d(
          (depthwise): Conv3d(64, 64, kernel_size=(3, 3, 3), stride=(1, 1, 1), padding=(1, 1, 1), groups=64, bias=False)
          (pointwise): Conv3d(64, 32, kernel_size=(1, 1, 1), stride=(1, 1, 1), bias=False)
        )
        (1): GroupNorm(16, 32, eps=1e-05, affine=True)
        (2): ReLU(inplace=True)
      )
    )
    (occ): ModuleList(
      (0): Conv3d(256, 17, kernel_size=(1, 1, 1), stride=(1, 1, 1), bias=False)
      (1): Conv3d(128, 17, kernel_size=(1, 1, 1), stride=(1, 1, 1), bias=False)
      (2): Conv3d(64, 17, kernel_size=(1, 1, 1), stride=(1, 1, 1), bias=False)
      (3): Conv3d(32, 17, kernel_size=(1, 1, 1), stride=(1, 1, 1), bias=False)
    )
    (volume_embedding): ModuleList(
      (0): Embedding(80000, 128)
      (1): Embedding(10000, 256)
      (2): Embedding(1250, 512)
    )
    (transfer_conv): ModuleList(
      (0): Sequential(
        (0): Conv2d(512, 128, kernel_size=(1, 1), stride=(1, 1))
        (1): ReLU(inplace=True)
      )
      (1): Sequential(
        (0): Conv2d(512, 256, kernel_size=(1, 1), stride=(1, 1))
        (1): ReLU(inplace=True)
      )
      (2): Sequential(
        (0): Conv2d(512, 512, kernel_size=(1, 1), stride=(1, 1))
        (1): ReLU(inplace=True)
      )
    )
  )
  (img_backbone): ResNet(
    (conv1): Conv2d(3, 64, kernel_size=(7, 7), stride=(2, 2), padding=(3, 3), bias=False)
    (bn1): BatchNorm2d(64, eps=1e-05, momentum=0.1, affine=True, track_running_stats=True)
    (relu): ReLU(inplace=True)
    (maxpool): MaxPool2d(kernel_size=3, stride=2, padding=1, dilation=1, ceil_mode=False)
    (layer1): ResLayer(
      (0): Bottleneck(
        (conv1): Conv2d(64, 64, kernel_size=(1, 1), stride=(1, 1), bias=False)
        (bn1): BatchNorm2d(64, eps=1e-05, momentum=0.1, affine=True, track_running_stats=True)
        (conv2): Conv2d(64, 64, kernel_size=(3, 3), stride=(1, 1), padding=(1, 1), bias=False)
        (bn2): BatchNorm2d(64, eps=1e-05, momentum=0.1, affine=True, track_running_stats=True)
        (conv3): Conv2d(64, 256, kernel_size=(1, 1), stride=(1, 1), bias=False)
        (bn3): BatchNorm2d(256, eps=1e-05, momentum=0.1, affine=True, track_running_stats=True)
        (relu): ReLU(inplace=True)
        (downsample): Sequential(
          (0): Conv2d(64, 256, kernel_size=(1, 1), stride=(1, 1), bias=False)
          (1): BatchNorm2d(256, eps=1e-05, momentum=0.1, affine=True, track_running_stats=True)
        )
      )
      init_cfg={'type': 'Constant', 'val': 0, 'override': {'name': 'norm3'}}
      (1): Bottleneck(
        (conv1): Conv2d(256, 64, kernel_size=(1, 1), stride=(1, 1), bias=False)
        (bn1): BatchNorm2d(64, eps=1e-05, momentum=0.1, affine=True, track_running_stats=True)
        (conv2): Conv2d(64, 64, kernel_size=(3, 3), stride=(1, 1), padding=(1, 1), bias=False)
        (bn2): BatchNorm2d(64, eps=1e-05, momentum=0.1, affine=True, track_running_stats=True)
        (conv3): Conv2d(64, 256, kernel_size=(1, 1), stride=(1, 1), bias=False)
        (bn3): BatchNorm2d(256, eps=1e-05, momentum=0.1, affine=True, track_running_stats=True)
        (relu): ReLU(inplace=True)
      )
      init_cfg={'type': 'Constant', 'val': 0, 'override': {'name': 'norm3'}}
      (2): Bottleneck(
        (conv1): Conv2d(256, 64, kernel_size=(1, 1), stride=(1, 1), bias=False)
        (bn1): BatchNorm2d(64, eps=1e-05, momentum=0.1, affine=True, track_running_stats=True)
        (conv2): Conv2d(64, 64, kernel_size=(3, 3), stride=(1, 1), padding=(1, 1), bias=False)
        (bn2): BatchNorm2d(64, eps=1e-05, momentum=0.1, affine=True, track_running_stats=True)
        (conv3): Conv2d(64, 256, kernel_size=(1, 1), stride=(1, 1), bias=False)
        (bn3): BatchNorm2d(256, eps=1e-05, momentum=0.1, affine=True, track_running_stats=True)
        (relu): ReLU(inplace=True)
      )
      init_cfg={'type': 'Constant', 'val': 0, 'override': {'name': 'norm3'}}
    )
    (layer2): ResLayer(
      (0): Bottleneck(
        (conv1): Conv2d(256, 128, kernel_size=(1, 1), stride=(2, 2), bias=False)
        (bn1): BatchNorm2d(128, eps=1e-05, momentum=0.1, affine=True, track_running_stats=True)
        (conv2): Conv2d(128, 128, kernel_size=(3, 3), stride=(1, 1), padding=(1, 1), bias=False)
        (bn2): BatchNorm2d(128, eps=1e-05, momentum=0.1, affine=True, track_running_stats=True)
        (conv3): Conv2d(128, 512, kernel_size=(1, 1), stride=(1, 1), bias=False)
        (bn3): BatchNorm2d(512, eps=1e-05, momentum=0.1, affine=True, track_running_stats=True)
        (relu): ReLU(inplace=True)
        (downsample): Sequential(
          (0): Conv2d(256, 512, kernel_size=(1, 1), stride=(2, 2), bias=False)
          (1): BatchNorm2d(512, eps=1e-05, momentum=0.1, affine=True, track_running_stats=True)
        )
      )
      init_cfg={'type': 'Constant', 'val': 0, 'override': {'name': 'norm3'}}
      (1): Bottleneck(
        (conv1): Conv2d(512, 128, kernel_size=(1, 1), stride=(1, 1), bias=False)
        (bn1): BatchNorm2d(128, eps=1e-05, momentum=0.1, affine=True, track_running_stats=True)
        (conv2): Conv2d(128, 128, kernel_size=(3, 3), stride=(1, 1), padding=(1, 1), bias=False)
        (bn2): BatchNorm2d(128, eps=1e-05, momentum=0.1, affine=True, track_running_stats=True)
        (conv3): Conv2d(128, 512, kernel_size=(1, 1), stride=(1, 1), bias=False)
        (bn3): BatchNorm2d(512, eps=1e-05, momentum=0.1, affine=True, track_running_stats=True)
        (relu): ReLU(inplace=True)
      )
      init_cfg={'type': 'Constant', 'val': 0, 'override': {'name': 'norm3'}}
      (2): Bottleneck(
        (conv1): Conv2d(512, 128, kernel_size=(1, 1), stride=(1, 1), bias=False)
        (bn1): BatchNorm2d(128, eps=1e-05, momentum=0.1, affine=True, track_running_stats=True)
        (conv2): Conv2d(128, 128, kernel_size=(3, 3), stride=(1, 1), padding=(1, 1), bias=False)
        (bn2): BatchNorm2d(128, eps=1e-05, momentum=0.1, affine=True, track_running_stats=True)
        (conv3): Conv2d(128, 512, kernel_size=(1, 1), stride=(1, 1), bias=False)
        (bn3): BatchNorm2d(512, eps=1e-05, momentum=0.1, affine=True, track_running_stats=True)
        (relu): ReLU(inplace=True)
      )
      init_cfg={'type': 'Constant', 'val': 0, 'override': {'name': 'norm3'}}
      (3): Bottleneck(
        (conv1): Conv2d(512, 128, kernel_size=(1, 1), stride=(1, 1), bias=False)
        (bn1): BatchNorm2d(128, eps=1e-05, momentum=0.1, affine=True, track_running_stats=True)
        (conv2): Conv2d(128, 128, kernel_size=(3, 3), stride=(1, 1), padding=(1, 1), bias=False)
        (bn2): BatchNorm2d(128, eps=1e-05, momentum=0.1, affine=True, track_running_stats=True)
        (conv3): Conv2d(128, 512, kernel_size=(1, 1), stride=(1, 1), bias=False)
        (bn3): BatchNorm2d(512, eps=1e-05, momentum=0.1, affine=True, track_running_stats=True)
        (relu): ReLU(inplace=True)
      )
      init_cfg={'type': 'Constant', 'val': 0, 'override': {'name': 'norm3'}}
    )
    (layer3): ResLayer(
      (0): Bottleneck(
        (conv1): Conv2d(512, 256, kernel_size=(1, 1), stride=(2, 2), bias=False)
        (bn1): BatchNorm2d(256, eps=1e-05, momentum=0.1, affine=True, track_running_stats=True)
        (conv2): ModulatedDeformConv2dPack(
          (conv_offset): Conv2d(256, 27, kernel_size=(3, 3), stride=(1, 1), padding=(1, 1))
        )
        (bn2): BatchNorm2d(256, eps=1e-05, momentum=0.1, affine=True, track_running_stats=True)
        (conv3): Conv2d(256, 1024, kernel_size=(1, 1), stride=(1, 1), bias=False)
        (bn3): BatchNorm2d(1024, eps=1e-05, momentum=0.1, affine=True, track_running_stats=True)
        (relu): ReLU(inplace=True)
        (downsample): Sequential(
          (0): Conv2d(512, 1024, kernel_size=(1, 1), stride=(2, 2), bias=False)
          (1): BatchNorm2d(1024, eps=1e-05, momentum=0.1, affine=True, track_running_stats=True)
        )
      )
      init_cfg={'type': 'Constant', 'val': 0, 'override': {'name': 'norm3'}}
      (1): Bottleneck(
        (conv1): Conv2d(1024, 256, kernel_size=(1, 1), stride=(1, 1), bias=False)
        (bn1): BatchNorm2d(256, eps=1e-05, momentum=0.1, affine=True, track_running_stats=True)
        (conv2): ModulatedDeformConv2dPack(
          (conv_offset): Conv2d(256, 27, kernel_size=(3, 3), stride=(1, 1), padding=(1, 1))
        )
        (bn2): BatchNorm2d(256, eps=1e-05, momentum=0.1, affine=True, track_running_stats=True)
        (conv3): Conv2d(256, 1024, kernel_size=(1, 1), stride=(1, 1), bias=False)
        (bn3): BatchNorm2d(1024, eps=1e-05, momentum=0.1, affine=True, track_running_stats=True)
        (relu): ReLU(inplace=True)
      )
      init_cfg={'type': 'Constant', 'val': 0, 'override': {'name': 'norm3'}}
      (2): Bottleneck(
        (conv1): Conv2d(1024, 256, kernel_size=(1, 1), stride=(1, 1), bias=False)
        (bn1): BatchNorm2d(256, eps=1e-05, momentum=0.1, affine=True, track_running_stats=True)
        (conv2): ModulatedDeformConv2dPack(
          (conv_offset): Conv2d(256, 27, kernel_size=(3, 3), stride=(1, 1), padding=(1, 1))
        )
        (bn2): BatchNorm2d(256, eps=1e-05, momentum=0.1, affine=True, track_running_stats=True)
        (conv3): Conv2d(256, 1024, kernel_size=(1, 1), stride=(1, 1), bias=False)
        (bn3): BatchNorm2d(1024, eps=1e-05, momentum=0.1, affine=True, track_running_stats=True)
        (relu): ReLU(inplace=True)
      )
      init_cfg={'type': 'Constant', 'val': 0, 'override': {'name': 'norm3'}}
      (3): Bottleneck(
        (conv1): Conv2d(1024, 256, kernel_size=(1, 1), stride=(1, 1), bias=False)
        (bn1): BatchNorm2d(256, eps=1e-05, momentum=0.1, affine=True, track_running_stats=True)
        (conv2): ModulatedDeformConv2dPack(
          (conv_offset): Conv2d(256, 27, kernel_size=(3, 3), stride=(1, 1), padding=(1, 1))
        )
        (bn2): BatchNorm2d(256, eps=1e-05, momentum=0.1, affine=True, track_running_stats=True)
        (conv3): Conv2d(256, 1024, kernel_size=(1, 1), stride=(1, 1), bias=False)
        (bn3): BatchNorm2d(1024, eps=1e-05, momentum=0.1, affine=True, track_running_stats=True)
        (relu): ReLU(inplace=True)
      )
      init_cfg={'type': 'Constant', 'val': 0, 'override': {'name': 'norm3'}}
      (4): Bottleneck(
        (conv1): Conv2d(1024, 256, kernel_size=(1, 1), stride=(1, 1), bias=False)
        (bn1): BatchNorm2d(256, eps=1e-05, momentum=0.1, affine=True, track_running_stats=True)
        (conv2): ModulatedDeformConv2dPack(
          (conv_offset): Conv2d(256, 27, kernel_size=(3, 3), stride=(1, 1), padding=(1, 1))
        )
        (bn2): BatchNorm2d(256, eps=1e-05, momentum=0.1, affine=True, track_running_stats=True)
        (conv3): Conv2d(256, 1024, kernel_size=(1, 1), stride=(1, 1), bias=False)
        (bn3): BatchNorm2d(1024, eps=1e-05, momentum=0.1, affine=True, track_running_stats=True)
        (relu): ReLU(inplace=True)
      )
      init_cfg={'type': 'Constant', 'val': 0, 'override': {'name': 'norm3'}}
      (5): Bottleneck(
        (conv1): Conv2d(1024, 256, kernel_size=(1, 1), stride=(1, 1), bias=False)
        (bn1): BatchNorm2d(256, eps=1e-05, momentum=0.1, affine=True, track_running_stats=True)
        (conv2): ModulatedDeformConv2dPack(
          (conv_offset): Conv2d(256, 27, kernel_size=(3, 3), stride=(1, 1), padding=(1, 1))
        )
        (bn2): BatchNorm2d(256, eps=1e-05, momentum=0.1, affine=True, track_running_stats=True)
        (conv3): Conv2d(256, 1024, kernel_size=(1, 1), stride=(1, 1), bias=False)
        (bn3): BatchNorm2d(1024, eps=1e-05, momentum=0.1, affine=True, track_running_stats=True)
        (relu): ReLU(inplace=True)
      )
      init_cfg={'type': 'Constant', 'val': 0, 'override': {'name': 'norm3'}}
    )
    (layer4): ResLayer(
      (0): Bottleneck(
        (conv1): Conv2d(1024, 512, kernel_size=(1, 1), stride=(2, 2), bias=False)
        (bn1): BatchNorm2d(512, eps=1e-05, momentum=0.1, affine=True, track_running_stats=True)
        (conv2): ModulatedDeformConv2dPack(
          (conv_offset): Conv2d(512, 27, kernel_size=(3, 3), stride=(1, 1), padding=(1, 1))
        )
        (bn2): BatchNorm2d(512, eps=1e-05, momentum=0.1, affine=True, track_running_stats=True)
        (conv3): Conv2d(512, 2048, kernel_size=(1, 1), stride=(1, 1), bias=False)
        (bn3): BatchNorm2d(2048, eps=1e-05, momentum=0.1, affine=True, track_running_stats=True)
        (relu): ReLU(inplace=True)
        (downsample): Sequential(
          (0): Conv2d(1024, 2048, kernel_size=(1, 1), stride=(2, 2), bias=False)
          (1): BatchNorm2d(2048, eps=1e-05, momentum=0.1, affine=True, track_running_stats=True)
        )
      )
      init_cfg={'type': 'Constant', 'val': 0, 'override': {'name': 'norm3'}}
      (1): Bottleneck(
        (conv1): Conv2d(2048, 512, kernel_size=(1, 1), stride=(1, 1), bias=False)
        (bn1): BatchNorm2d(512, eps=1e-05, momentum=0.1, affine=True, track_running_stats=True)
        (conv2): ModulatedDeformConv2dPack(
          (conv_offset): Conv2d(512, 27, kernel_size=(3, 3), stride=(1, 1), padding=(1, 1))
        )
        (bn2): BatchNorm2d(512, eps=1e-05, momentum=0.1, affine=True, track_running_stats=True)
        (conv3): Conv2d(512, 2048, kernel_size=(1, 1), stride=(1, 1), bias=False)
        (bn3): BatchNorm2d(2048, eps=1e-05, momentum=0.1, affine=True, track_running_stats=True)
        (relu): ReLU(inplace=True)
      )
      init_cfg={'type': 'Constant', 'val': 0, 'override': {'name': 'norm3'}}
      (2): Bottleneck(
        (conv1): Conv2d(2048, 512, kernel_size=(1, 1), stride=(1, 1), bias=False)
        (bn1): BatchNorm2d(512, eps=1e-05, momentum=0.1, affine=True, track_running_stats=True)
        (conv2): ModulatedDeformConv2dPack(
          (conv_offset): Conv2d(512, 27, kernel_size=(3, 3), stride=(1, 1), padding=(1, 1))
        )
        (bn2): BatchNorm2d(512, eps=1e-05, momentum=0.1, affine=True, track_running_stats=True)
        (conv3): Conv2d(512, 2048, kernel_size=(1, 1), stride=(1, 1), bias=False)
        (bn3): BatchNorm2d(2048, eps=1e-05, momentum=0.1, affine=True, track_running_stats=True)
        (relu): ReLU(inplace=True)
      )
      init_cfg={'type': 'Constant', 'val': 0, 'override': {'name': 'norm3'}}
    )
  )
  init_cfg=[{'type': 'Kaiming', 'layer': 'Conv2d'}, {'type': 'Constant', 'val': 1, 'layer': ['_BatchNorm', 'GroupNorm']}]
  (img_neck): FPN(
    (lateral_convs): ModuleList(
      (0): ConvModule(
        (conv): Conv2d(512, 512, kernel_size=(1, 1), stride=(1, 1))
      )
      (1): ConvModule(
        (conv): Conv2d(1024, 512, kernel_size=(1, 1), stride=(1, 1))
      )
      (2): ConvModule(
        (conv): Conv2d(2048, 512, kernel_size=(1, 1), stride=(1, 1))
      )
    )
    (fpn_convs): ModuleList(
      (0): ConvModule(
        (conv): Conv2d(512, 512, kernel_size=(3, 3), stride=(1, 1), padding=(1, 1))
      )
      (1): ConvModule(
        (conv): Conv2d(512, 512, kernel_size=(3, 3), stride=(1, 1), padding=(1, 1))
      )
      (2): ConvModule(
        (conv): Conv2d(512, 512, kernel_size=(3, 3), stride=(1, 1), padding=(1, 1))
      )
    )
  )
  init_cfg={'type': 'Xavier', 'layer': 'Conv2d', 'distribution': 'uniform'}
  (grid_mask): GridMask()
)
2025-02-23 22:54:28,013 - mmdet - INFO - load checkpoint from local path: ckpts/r50_fcos3d_pretrain.pth
2025-02-23 22:54:28,152 - mmdet - WARNING - The model and loaded state dict do not match exactly

size mismatch for img_neck.lateral_convs.0.conv.weight: copying a param with shape torch.Size([256, 512, 1, 1]) from checkpoint, the shape in current model is torch.Size([512, 512, 1, 1]).
…
